…
====================================================================================================
Arguments =
	seed: 0
	experiment: cifar
	approach: hat-res50
	output: ../res/20211121339_cifar_hat-res50_0.txt
	nepochs: 200
	lr: 0.05
	parameter: 
	load_path: 
====================================================================================================
Load data...
Task order = [0]
Input size = [3, 32, 32] 
Task info = [(0, 100)]
Inits...
No pretrained model
----------------------------------------------------------------------------------------------------
Net(
  (avgpool): AdaptiveAvgPool2d(output_size=(1, 1))
  (relu): ReLU()
  (c1): Conv2d(3, 64, kernel_size=(3, 3), stride=(1, 1), padding=(1, 1), bias=False)
  (c2_1_1): Conv2d(64, 64, kernel_size=(1, 1), stride=(1, 1), bias=False)
  (c2_1_2): Conv2d(64, 64, kernel_size=(3, 3), stride=(1, 1), padding=(1, 1), bias=False)
  (c2_1_3): Conv2d(64, 256, kernel_size=(1, 1), stride=(1, 1), bias=False)
  (c2_1_d): Conv2d(64, 256, kernel_size=(1, 1), stride=(1, 1), bias=False)
  (c2_2_1): Conv2d(256, 64, kernel_size=(1, 1), stride=(1, 1), bias=False)
  (c2_2_2): Conv2d(64, 64, kernel_size=(3, 3), stride=(1, 1), padding=(1, 1), bias=False)
  (c2_2_3): Conv2d(64, 256, kernel_size=(1, 1), stride=(1, 1), bias=False)
  (c2_3_1): Conv2d(256, 64, kernel_size=(1, 1), stride=(1, 1), bias=False)
  (c2_3_2): Conv2d(64, 64, kernel_size=(3, 3), stride=(1, 1), padding=(1, 1), bias=False)
  (c2_3_3): Conv2d(64, 256, kernel_size=(1, 1), stride=(1, 1), bias=False)
  (c3_1_1): Conv2d(256, 128, kernel_size=(1, 1), stride=(1, 1), bias=False)
  (c3_1_2): Conv2d(128, 128, kernel_size=(3, 3), stride=(2, 2), padding=(1, 1), bias=False)
  (c3_1_3): Conv2d(128, 512, kernel_size=(1, 1), stride=(1, 1), bias=False)
  (c3_1_d): Conv2d(256, 512, kernel_size=(1, 1), stride=(2, 2), bias=False)
  (c3_2_1): Conv2d(512, 128, kernel_size=(1, 1), stride=(1, 1), bias=False)
  (c3_2_2): Conv2d(128, 128, kernel_size=(3, 3), stride=(1, 1), padding=(1, 1), bias=False)
  (c3_2_3): Conv2d(128, 512, kernel_size=(1, 1), stride=(1, 1), bias=False)
  (c3_3_1): Conv2d(512, 128, kernel_size=(1, 1), stride=(1, 1), bias=False)
  (c3_3_2): Conv2d(128, 128, kernel_size=(3, 3), stride=(1, 1), padding=(1, 1), bias=False)
  (c3_3_3): Conv2d(128, 512, kernel_size=(1, 1), stride=(1, 1), bias=False)
  (c3_4_1): Conv2d(512, 128, kernel_size=(1, 1), stride=(1, 1), bias=False)
  (c3_4_2): Conv2d(128, 128, kernel_size=(3, 3), stride=(1, 1), padding=(1, 1), bias=False)
  (c3_4_3): Conv2d(128, 512, kernel_size=(1, 1), stride=(1, 1), bias=False)
  (c4_1_1): Conv2d(512, 256, kernel_size=(1, 1), stride=(1, 1), bias=False)
  (c4_1_2): Conv2d(256, 256, kernel_size=(3, 3), stride=(2, 2), padding=(1, 1), bias=False)
  (c4_1_3): Conv2d(256, 1024, kernel_size=(1, 1), stride=(1, 1), bias=False)
  (c4_1_d): Conv2d(512, 1024, kernel_size=(1, 1), stride=(2, 2), bias=False)
  (c4_2_1): Conv2d(1024, 256, kernel_size=(1, 1), stride=(1, 1), bias=False)
  (c4_2_2): Conv2d(256, 256, kernel_size=(3, 3), stride=(1, 1), padding=(1, 1), bias=False)
  (c4_2_3): Conv2d(256, 1024, kernel_size=(1, 1), stride=(1, 1), bias=False)
  (c4_3_1): Conv2d(1024, 256, kernel_size=(1, 1), stride=(1, 1), bias=False)
  (c4_3_2): Conv2d(256, 256, kernel_size=(3, 3), stride=(1, 1), padding=(1, 1), bias=False)
  (c4_3_3): Conv2d(256, 1024, kernel_size=(1, 1), stride=(1, 1), bias=False)
  (c4_4_1): Conv2d(1024, 256, kernel_size=(1, 1), stride=(1, 1), bias=False)
  (c4_4_2): Conv2d(256, 256, kernel_size=(3, 3), stride=(1, 1), padding=(1, 1), bias=False)
  (c4_4_3): Conv2d(256, 1024, kernel_size=(1, 1), stride=(1, 1), bias=False)
  (c4_5_1): Conv2d(1024, 256, kernel_size=(1, 1), stride=(1, 1), bias=False)
  (c4_5_2): Conv2d(256, 256, kernel_size=(3, 3), stride=(1, 1), padding=(1, 1), bias=False)
  (c4_5_3): Conv2d(256, 1024, kernel_size=(1, 1), stride=(1, 1), bias=False)
  (c4_6_1): Conv2d(1024, 256, kernel_size=(1, 1), stride=(1, 1), bias=False)
  (c4_6_2): Conv2d(256, 256, kernel_size=(3, 3), stride=(1, 1), padding=(1, 1), bias=False)
  (c4_6_3): Conv2d(256, 1024, kernel_size=(1, 1), stride=(1, 1), bias=False)
  (c5_1_1): Conv2d(1024, 512, kernel_size=(1, 1), stride=(1, 1), bias=False)
  (c5_1_2): Conv2d(512, 512, kernel_size=(3, 3), stride=(2, 2), padding=(1, 1), bias=False)
  (c5_1_3): Conv2d(512, 2048, kernel_size=(1, 1), stride=(1, 1), bias=False)
  (c5_1_d): Conv2d(1024, 2048, kernel_size=(1, 1), stride=(2, 2), bias=False)
  (c5_2_1): Conv2d(2048, 512, kernel_size=(1, 1), stride=(1, 1), bias=False)
  (c5_2_2): Conv2d(512, 512, kernel_size=(3, 3), stride=(1, 1), padding=(1, 1), bias=False)
  (c5_2_3): Conv2d(512, 2048, kernel_size=(1, 1), stride=(1, 1), bias=False)
  (c5_3_1): Conv2d(2048, 512, kernel_size=(1, 1), stride=(1, 1), bias=False)
  (c5_3_2): Conv2d(512, 512, kernel_size=(3, 3), stride=(1, 1), padding=(1, 1), bias=False)
  (c5_3_3): Conv2d(512, 2048, kernel_size=(1, 1), stride=(1, 1), bias=False)
  (last): ModuleList(
    (0): Linear(in_features=2048, out_features=100, bias=True)
  )
  (gate): Sigmoid()
  (ec1): Embedding(1, 64)
  (ec2_1_1): Embedding(1, 64)
  (ec2_1_2): Embedding(1, 64)
  (ec2_1_3): Embedding(1, 256)
  (ec2_1_d): Embedding(1, 256)
  (ect2_1): Embedding(1, 256)
  (ec2_2_1): Embedding(1, 64)
  (ec2_2_2): Embedding(1, 64)
  (ec2_2_3): Embedding(1, 256)
  (ec2_3_1): Embedding(1, 64)
  (ec2_3_2): Embedding(1, 64)
  (ec2_3_3): Embedding(1, 256)
  (ec3_1_1): Embedding(1, 128)
  (ec3_1_2): Embedding(1, 128)
  (ec3_1_3): Embedding(1, 512)
  (ec3_1_d): Embedding(1, 512)
  (ect3_1): Embedding(1, 512)
  (ec3_2_1): Embedding(1, 128)
  (ec3_2_2): Embedding(1, 128)
  (ec3_2_3): Embedding(1, 512)
  (ec3_3_1): Embedding(1, 128)
  (ec3_3_2): Embedding(1, 128)
  (ec3_3_3): Embedding(1, 512)
  (ec3_4_1): Embedding(1, 128)
  (ec3_4_2): Embedding(1, 128)
  (ec3_4_3): Embedding(1, 512)
  (ec4_1_1): Embedding(1, 256)
  (ec4_1_2): Embedding(1, 256)
  (ec4_1_3): Embedding(1, 1024)
  (ec4_1_d): Embedding(1, 1024)
  (ect4_1): Embedding(1, 1024)
  (ec4_2_1): Embedding(1, 256)
  (ec4_2_2): Embedding(1, 256)
  (ec4_2_3): Embedding(1, 1024)
  (ec4_3_1): Embedding(1, 256)
  (ec4_3_2): Embedding(1, 256)
  (ec4_3_3): Embedding(1, 1024)
  (ec4_4_1): Embedding(1, 256)
  (ec4_4_2): Embedding(1, 256)
  (ec4_4_3): Embedding(1, 1024)
  (ec4_5_1): Embedding(1, 256)
  (ec4_5_2): Embedding(1, 256)
  (ec4_5_3): Embedding(1, 1024)
  (ec4_6_1): Embedding(1, 256)
  (ec4_6_2): Embedding(1, 256)
  (ec4_6_3): Embedding(1, 1024)
  (ec5_1_1): Embedding(1, 512)
  (ec5_1_2): Embedding(1, 512)
  (ec5_1_3): Embedding(1, 2048)
  (ec5_1_d): Embedding(1, 2048)
  (ect5_1): Embedding(1, 2048)
  (ec5_2_1): Embedding(1, 512)
  (ec5_2_2): Embedding(1, 512)
  (ec5_2_3): Embedding(1, 2048)
  (ec5_3_1): Embedding(1, 512)
  (ec5_3_2): Embedding(1, 512)
  (ec5_3_3): Embedding(1, 2048)
  (bn1): BatchNorm2d(64, eps=1e-05, momentum=0.1, affine=False, track_running_stats=False)
  (bn2_1_1): BatchNorm2d(64, eps=1e-05, momentum=0.1, affine=False, track_running_stats=False)
  (bn2_1_2): BatchNorm2d(64, eps=1e-05, momentum=0.1, affine=False, track_running_stats=False)
  (bn2_1_3): BatchNorm2d(256, eps=1e-05, momentum=0.1, affine=False, track_running_stats=False)
  (bn2_1_d): BatchNorm2d(256, eps=1e-05, momentum=0.1, affine=False, track_running_stats=False)
  (bn2_2_1): BatchNorm2d(64, eps=1e-05, momentum=0.1, affine=False, track_running_stats=False)
  (bn2_2_2): BatchNorm2d(64, eps=1e-05, momentum=0.1, affine=False, track_running_stats=False)
  (bn2_2_3): BatchNorm2d(256, eps=1e-05, momentum=0.1, affine=False, track_running_stats=False)
  (bn2_3_1): BatchNorm2d(64, eps=1e-05, momentum=0.1, affine=False, track_running_stats=False)
  (bn2_3_2): BatchNorm2d(64, eps=1e-05, momentum=0.1, affine=False, track_running_stats=False)
  (bn2_3_3): BatchNorm2d(256, eps=1e-05, momentum=0.1, affine=False, track_running_stats=False)
  (bn3_1_1): BatchNorm2d(128, eps=1e-05, momentum=0.1, affine=False, track_running_stats=False)
  (bn3_1_2): BatchNorm2d(128, eps=1e-05, momentum=0.1, affine=False, track_running_stats=False)
  (bn3_1_3): BatchNorm2d(512, eps=1e-05, momentum=0.1, affine=False, track_running_stats=False)
  (bn3_1_d): BatchNorm2d(512, eps=1e-05, momentum=0.1, affine=False, track_running_stats=False)
  (bn3_2_1): BatchNorm2d(128, eps=1e-05, momentum=0.1, affine=False, track_running_stats=False)
  (bn3_2_2): BatchNorm2d(128, eps=1e-05, momentum=0.1, affine=False, track_running_stats=False)
  (bn3_2_3): BatchNorm2d(512, eps=1e-05, momentum=0.1, affine=False, track_running_stats=False)
  (bn3_3_1): BatchNorm2d(128, eps=1e-05, momentum=0.1, affine=False, track_running_stats=False)
  (bn3_3_2): BatchNorm2d(128, eps=1e-05, momentum=0.1, affine=False, track_running_stats=False)
  (bn3_3_3): BatchNorm2d(512, eps=1e-05, momentum=0.1, affine=False, track_running_stats=False)
  (bn3_4_1): BatchNorm2d(128, eps=1e-05, momentum=0.1, affine=False, track_running_stats=False)
  (bn3_4_2): BatchNorm2d(128, eps=1e-05, momentum=0.1, affine=False, track_running_stats=False)
  (bn3_4_3): BatchNorm2d(512, eps=1e-05, momentum=0.1, affine=False, track_running_stats=False)
  (bn4_1_1): BatchNorm2d(256, eps=1e-05, momentum=0.1, affine=False, track_running_stats=False)
  (bn4_1_2): BatchNorm2d(256, eps=1e-05, momentum=0.1, affine=False, track_running_stats=False)
  (bn4_1_3): BatchNorm2d(1024, eps=1e-05, momentum=0.1, affine=False, track_running_stats=False)
  (bn4_1_d): BatchNorm2d(1024, eps=1e-05, momentum=0.1, affine=False, track_running_stats=False)
  (bn4_2_1): BatchNorm2d(256, eps=1e-05, momentum=0.1, affine=False, track_running_stats=False)
  (bn4_2_2): BatchNorm2d(256, eps=1e-05, momentum=0.1, affine=False, track_running_stats=False)
  (bn4_2_3): BatchNorm2d(1024, eps=1e-05, momentum=0.1, affine=False, track_running_stats=False)
  (bn4_3_1): BatchNorm2d(256, eps=1e-05, momentum=0.1, affine=False, track_running_stats=False)
  (bn4_3_2): BatchNorm2d(256, eps=1e-05, momentum=0.1, affine=False, track_running_stats=False)
  (bn4_3_3): BatchNorm2d(1024, eps=1e-05, momentum=0.1, affine=False, track_running_stats=False)
  (bn4_4_1): BatchNorm2d(256, eps=1e-05, momentum=0.1, affine=False, track_running_stats=False)
  (bn4_4_2): BatchNorm2d(256, eps=1e-05, momentum=0.1, affine=False, track_running_stats=False)
  (bn4_4_3): BatchNorm2d(1024, eps=1e-05, momentum=0.1, affine=False, track_running_stats=False)
  (bn4_5_1): BatchNorm2d(256, eps=1e-05, momentum=0.1, affine=False, track_running_stats=False)
  (bn4_5_2): BatchNorm2d(256, eps=1e-05, momentum=0.1, affine=False, track_running_stats=False)
  (bn4_5_3): BatchNorm2d(1024, eps=1e-05, momentum=0.1, affine=False, track_running_stats=False)
  (bn4_6_1): BatchNorm2d(256, eps=1e-05, momentum=0.1, affine=False, track_running_stats=False)
  (bn4_6_2): BatchNorm2d(256, eps=1e-05, momentum=0.1, affine=False, track_running_stats=False)
  (bn4_6_3): BatchNorm2d(1024, eps=1e-05, momentum=0.1, affine=False, track_running_stats=False)
  (bn5_1_1): BatchNorm2d(512, eps=1e-05, momentum=0.1, affine=False, track_running_stats=False)
  (bn5_1_2): BatchNorm2d(512, eps=1e-05, momentum=0.1, affine=False, track_running_stats=False)
  (bn5_1_3): BatchNorm2d(2048, eps=1e-05, momentum=0.1, affine=False, track_running_stats=False)
  (bn5_1_d): BatchNorm2d(2048, eps=1e-05, momentum=0.1, affine=False, track_running_stats=False)
  (bn5_2_1): BatchNorm2d(512, eps=1e-05, momentum=0.1, affine=False, track_running_stats=False)
  (bn5_2_2): BatchNorm2d(512, eps=1e-05, momentum=0.1, affine=False, track_running_stats=False)
  (bn5_2_3): BatchNorm2d(2048, eps=1e-05, momentum=0.1, affine=False, track_running_stats=False)
  (bn5_3_1): BatchNorm2d(512, eps=1e-05, momentum=0.1, affine=False, track_running_stats=False)
  (bn5_3_2): BatchNorm2d(512, eps=1e-05, momentum=0.1, affine=False, track_running_stats=False)
  (bn5_3_3): BatchNorm2d(2048, eps=1e-05, momentum=0.1, affine=False, track_running_stats=False)
)
Dimensions = torch.Size([64, 3, 3, 3]) torch.Size([64, 64, 1, 1]) torch.Size([64, 64, 3, 3]) torch.Size([256, 64, 1, 1]) torch.Size([256, 64, 1, 1]) torch.Size([64, 256, 1, 1]) torch.Size([64, 64, 3, 3]) torch.Size([256, 64, 1, 1]) torch.Size([64, 256, 1, 1]) torch.Size([64, 64, 3, 3]) torch.Size([256, 64, 1, 1]) torch.Siz
…
